data/pretrained_model/asl_alphabet_cnn.pt (torch, 74959 bytes, 8 tensors)

conv1.weight f4 [8, 3, 3, 3]
00000000: 4b56 17bd 0a65 9d3e cbe6 c33e 0610 b3bd
00000010: 18d9 5abd 15d6 c7bd 8446 5cbd 7149 aebe
00000020: 0393 5dbe e82a 5dbc 70f6 1e3e d843 e03e
00000030: 58b7 cabd 05f9 f53d 6aae 023e 073b 30be
00000040: bb46 2fbe 964b a1be 7a12 113e 1d38 2b3e
00000050: 23a2 683e 6efb 793e 69e8 b9bd fab3 4c3d
00000060: ae8e ac3d 8e7b 9bbc e414 7bbe 4b49 4e3f
00000070: 6d63 623e dcb8 233e a793 4f3f cd09 413e
00000080: 67ca d23d aa7b 283f b288 8d3e defe ab3e
00000090: b849 1d3f 75be 25bf d307 efbe c31a 133f
000000a0: b736 45bf 9172 84bf e971 933e 8ce9 85bf
000000b0: 91de 80bf bf09 0f3f 30b6 f4be c2d8 23bf
000000c0: 2c04 7d3f 4f82 8bbe 789a 81be 386f 463f
000000d0: 0f26 70bd 2747 22be d850 25be a6bc be3b
000000e0: 140a 863e 2703 d5bd c09c b8bd ee0b 983d
000000f0: d193 30bd 4412 2538 a5df aa3e c6f3 3dbe
00000100: 8c3b 65be 2b8a 543e 734b 0bbf 3223 82be
00000110: 931b c93e f490 bcbe 2bc0 313e 5934 363e
00000120: c478 25be 0eb7 7abe 65ca 9c3e 0499 5ebe
00000130: 2349 6abe b6f6 7a3e 10b7 f8bd 84a9 f83d
00000140: 6a7f 253f 6817 2c3e 6796 bcbc e49e 773d
00000150: d64e f8bd 9c75 81be 2856 94bd 94b5 c8be
00000160: ef6e e2be f013 02bf 70c4 6dbe 5431 f7bd
00000170: a3f6 4dbe c760 9abd 353c edbe 79b7 2bbf
00000180: 60a8 85be 6669 1cbf 4467 4bbf 4395 25be
00000190: a8c5 05bf ee9e 2cbe 1efb 4d3e fefa 8dbd
000001a0: 837a a3bc e5f2 353e 97e0 c33d 57ab cfbc
000001b0: ec1d 113f eb24 be3e 3908 003f a050 303f
000001c0: 2497 3f3f 1dc3 fc3e d805 e23e a4ad ca3e
000001d0: 6a59 393f 7351 09be 9c65 2cbf 800d dcbe
000001e0: 8060 a2be 7c5f 5abf 2772 13bf 00fb 19bf
000001f0: 4161 68bf 0a11 b3be 6d14 463e e53d 34be
00000200: 0ed5 4abe e894 79bd 31c9 a5be a03c 16bf
00000210: 9e6a 1fbe 83d0 febe 5d64 21be 0c9b d53e
00000220: 4f6e b93e 2ca4 12be fc4f 90be b5b5 b8be
00000230: 3f2d b3bd 3870 febe a06d 4abe 71e4 50be
00000240: 2218 183e e4f5 ca3e 858d 04be 4327 f9be
00000250: 1c2d fdbe 181b 24be 06eb 37bf 518f c8be
00000260: c763 84bd 2a2f d03e 88e9 ae3e 9abf 0b3e
00000270: 6d9a a0be eb93 0bbf a4ac fa3d 768c 9fbe
00000280: 1309 d0be b2a4 1b3e fc26 373e 2624 7ebd
00000290: 44e8 23be df58 0dbd 542c eb3e cfa3 5a3e
000002a0: e480 92be 97ab 27be 8a3f 59bd 9cd4 81be
000002b0: 6cdc 0abf f92b 4abf 9685 a7bc e87d b73d
000002c0: 3443 0d3e 61a2 94be b9b9 dbbd f434 263e
000002d0: 4b37 113c d417 bebe 9094 ddbe d861 3f3f
000002e0: 96dc 303f 1f37 543f 9b66 ea3d b72e b8bd
000002f0: 005f b43e f4f2 a93e fbf6 583f 63f0 6d3f
00000300: e947 cebe ac3b 02bf e365 82be 2bc9 8e3d
00000310: a33c bc3e 69c4 b43e ce76 343f fa93 8d3f
00000320: e9db 883f b980 b5bd 45b4 c7bd 6fc5 d7bc
00000330: 8e8c 6d3d 813b 383e 16c4 413e 8516 863e
00000340: 949f c13e 84b3 eb3e d577 03be 2a35 43be
00000350: e691 42be ed84 293e 6720 643e 5bc5 a1be
-0.03694753 0.3074115 0.3826202 -0.087432906 -0.053429693 -0.0975763 -0.053778186 -0.34040406
-0.21638112 -0.013498999 0.15523696 0.4380176 -0.09898251 0.12010387 0.12761846 -0.17210017
-0.17116825 -0.3150298 0.14167204 0.16720624 0.227181 0.24412319 -0.09077532 0.049976327
0.084256515 -0.018979814 -0.24519688 0.80580586 0.2210824 0.15988487 0.81084675 0.18851395
0.102925114 0.65813696 0.27643353 0.33592886 0.6144061 -0.6474374 -0.46685657 0.5746271
-0.77036613 -1.0347463 0.28797844 -1.0461898 -1.0067922 0.55874246 -0.47795248 -0.6400262
0.9883449 -0.27247855 -0.25313163 0.77513456 -0.058630046 -0.15847455 -0.1614412 0.0058208285
0.26179564 -0.10400992 -0.09014273 0.074241504 -0.04310972 3.9356077e-05 0.33373752 -0.18550023
-0.22385997 0.20755832 -0.54412 -0.25417477 0.3927885 -0.3682934 0.17358463 0.17793407
-0.1615935 -0.24483892 0.30623165 -0.21738058 -0.22879462 0.24508175 -0.121442914 0.121417075
0.64647543 0.16805804 -0.023020936 0.060454264 -0.12124412 -0.2528504 -0.072429955 -0.39201033
-0.4422526 -0.5081167 -0.23219466 -0.120699555 -0.20113616 -0.0753799 -0.46334997 -0.6707683
-0.26105022 -0.61098325 -0.79454446 -0.1617022 -0.52254725 -0.16857502 0.20115325 -0.069326386
-0.01995588 0.17768438 0.095643215 -0.025350256 0.5668628 0.3713754 0.50012547 0.68873024
0.7484 0.4936761 0.44145083 0.39585602 0.7240206 -0.13409977 -0.67342544 -0.4297905
-0.3171425 -0.8530195 -0.5759606 -0.6014862 -0.907734 -0.34973937 0.1934373 -0.17601736
-0.19807836 -0.060933024 -0.3238006 -0.58686256 -0.15568015 -0.49768457 -0.15760942 0.41719854
0.3621697 -0.14320439 -0.28186023 -0.3607613 -0.087488644 -0.4969499 -0.19768381 -0.20399643
0.14852956 0.39640725 -0.1294461 -0.48662767 -0.49448478 -0.1602596 -0.7184299 -0.39171842
-0.064643435 0.40660983 0.34162545 0.13647309 -0.31367818 -0.5452258 0.1223996 -0.3116185
-0.40631923 0.15199545 0.17885965 -0.062046193 -0.16006571 -0.034508582 0.45932257 0.2135155
-0.2861396 -0.1637405 -0.05303911 -0.2535752 -0.5424259 -0.78973347 -0.02044944 0.089595616
0.13795167 -0.29030135 -0.10728783 0.16231138 0.0088632805 -0.37127554 -0.43277407 0.7475867
0.6908659 0.8289661 0.11445352 -0.08993285 0.3522873 0.3319317 0.8475186 0.92944926
-0.40289238 -0.508723 -0.25468358 0.069719635 0.36765012 0.353061 0.7049378 1.1060784
1.0692111 -0.088624425 -0.097511806 -0.02633926 0.05799537 0.17991449 0.18922457 0.26189056
0.3781706 0.46035397 -0.12838681 -0.19063249 -0.19000968 0.16554613 0.22277986 -0.31595883

conv1.bias f4 [8]
00000000: e9f7 09be 1ef5 8bbe 68bc ebbd 0c72 d03e
00000010: 24d2 0b3f 6a10 9e3e db40 3d3c ed96 04bf
-0.13473476 -0.27335447 -0.11510545 0.4071201 0.54617524 0.30871898 0.011551107 -0.51792794

conv2.weight f4 [4, 8, 3, 3]
00000000: 8d43 11be a6f2 11bc 5323 42bd 7844 d6be
00000010: fb94 2c3c ce03 8fbe 44ce 993d 8a40 3b3b
00000020: fb56 90bd c787 ae3e 1e30 133e 37e3 233e
00000030: 7666 ab3d 7168 a83d e19b 0c3f ef11 84be
00000040: 30fb 54be fb59 c13e d4f7 37be 1526 ddbd
00000050: b993 d33d 0833 7bbd 15b1 55be 63c7 d63c
00000060: 4160 08bd fbb0 99bd 7e1b aa3d b47b b43e
00000070: 4526 743f 44c2 933f f7c9 6ebf d716 8ebf
00000080: 0f9f 45bf df66 46bf d302 29bf 3886 053d
00000090: ae8c b83e a982 3d3f 8168 4b3f 8ef7 15be
000000a0: 5c72 413d 0f38 ea3e 8809 36be 4b84 00be
000000b0: 7f8a 963e e29c fb3d bccc dd3e 6983 293f
000000c0: dc46 95bf e2f1 32bf 713c 01bf 2142 b7be
000000d0: 8d6a 8dbe 1ae2 04bf cd3f 493e bb3a 353e
000000e0: 54c9 a3bd 5a66 d13d 027f 203f c700 643e
000000f0: 9ba1 c83d cfaf be3e 2edb d73c 58ea a6bd
00000100: 0975 94be cf6c a9be cc85 9ebf 122a 7fbf
00000110: b553 7ebf 8422 763e 38ed 8c3e 3a63 5c3f
00000120: 01ce d7bc 75dc 7cbd 53fa 843c df44 2fbe
00000130: b977 babd 0d8c 4d39 8209 f3bd b5fe 533d
00000140: dd13 3b3c 93a7 603f b0bd e83d 90e1 be3e
00000150: 5ca0 853f e461 b23d dc24 1d3f 7b56 573f
00000160: 8dbc fc3d eb21 c03e 006e efbd 99c3 a73e
00000170: 22be 5f3e 5996 d13d be23 0d3f 1040 f23d
00000180: c026 dfba 55b9 bc3e e66f 333b fe9c 07be
00000190: 13d5 743d 5e8c f7be a82f c53d 222e 783d
000001a0: 14d5 cdbe b6cc 59be 534b edbd 4ce7 2abf
000001b0: cd13 b43e a3b2 393d 4a13 e2be 5e93 d43e
000001c0: 4750 fd3d 678e b8be f3d1 a43e 31a2 55be
000001d0: 734d a8be 4cbb 84be 41fd 453e 7241 12bf
000001e0: be84 d2be 2e62 80bd 15d9 12bf 7773 02bf
000001f0: 42f5 59be 86de 21bf 4ac9 1fbe 15b5 f33d
00000200: 9854 ff3c d513 9cbd c421 4e3e 1747 83bd
00000210: 3b6e 9bba 4514 a03d 2d6c 2b3d c3ce a03e
00000220: 76ef f9bc fc16 063f 213c e3be 0e3c 10be
00000230: 0aec 4b3d 93dd c6bd 00ac b7be 10d1 263d
00000240: 43e9 c6bd 2083 113e 221e ba3e 5037 75be
00000250: 07ef 10be eba3 ef3d 18be c2be 7bfb 30be
00000260: 845d bc3d 56b4 89be e615 00be 0630 b33d
00000270: 61ec ad3e bec7 fd3e 32af 883e b27f 9f3e
00000280: 5c52 f73e f669 3b3e 5221 b53e ddd7 743e
00000290: d9d2 7b3d b932 773e 9531 c23c ef50 973e
000002a0: 0d92 553e 77ab a6bb 1352 843d 36e9 1bbf
000002b0: fbb9 bebd 4cae b5be 9172 1bbf c932 b63d
000002c0: 810b 85bd 8e4a 6f3f 5dae 1d3f f718 a93e
000002d0: a31d 14bf 835b 023e 92c1 2a3f 2b6c c3be
000002e0: 09a6 063f ab7a b73e e72c 973c 40b8 a53e
000002f0: 96e1 a13d b5cf 3cbe 4ec7 9abe b24c dc3e
00000300: 50cc 14bf 0742 1f3f d5ec 7abd f48f eb3e
00000310: b6a8 933d fec6 18be d7f2 93bd 033f 06bf
00000320: c00c 0bbf 97e1 00bf 2da0 2dbb ff28 afbe
00000330: 1ca6 3fbc b1e6 d7bd 560b 1f3a e339 0fbd
00000340: 8a1b a03e ec8f c8b8 c431 17bd 7279 ad3e
00000350: 3325 443e fc22 17bf d55f 14bf 33c0 a3be
00000360: dac4 983d aec6 b6bc 12d5 b33d d940 22be
00000370: ba95 e23d e1bc 9a3e 56a5 ac3c 620e 5f3e
00000380: 4b00 ba3c 24cf 963e 3894 343f 5ff6 1f3e
00000390: 3c75 a2bd b5d3 b9be da9f 03bf 09c9 41bf
000003a0: 30d7 8ebf 6fd1 d0be 8fc3 34bd 20fb 17be
000003b0: 060a 4f3e c916 363e b989 453e b17b 6c3e
000003c0: e62f c53d 2e5a 98be a9df 79be 333e e83e
000003d0: c8c0 a73f 201f 3d3f 843c 103f dc88 573c
000003e0: f2a3 16bf feb0 5fbf 39b1 c9bf 1022 83bf
000003f0: 1161 d13c f8fc 593f b58f 953f f5e6 2c3f
-0.14185925 -0.00890795 -0.04739697 -0.41849113 0.010533567 -0.2793259 0.07510045 0.0028572404
-0.0704784 0.34087965 0.14373824 0.16004644 0.08369152 0.082230456 0.5492535 -0.25794932
-0.20798945 0.37763962 -0.17965633 -0.10798279 0.1033091 -0.061327964 -0.20868333 0.026218122
-0.03329492 -0.075044595 0.08306025 0.35250628 0.95370895 1.154366 -0.93276924 -1.110072
-0.7719583 -0.7750072 -0.66019934 0.032598704 0.3604483 0.74027497 0.79456335 -0.14645216
0.047228202 0.45745894 -0.17777073 -0.12550466 0.2940254 0.122857824 0.43320262 0.6621614
-1.166225 -0.69900334 -0.5048285 -0.3579264 -0.27620354 -0.51907504 0.19653244 0.17698185
-0.07997385 0.102246 0.626938 0.22265922 0.09796449 0.37243506 0.02634963 -0.08150166
-0.2899554 -0.33090827 -1.2384582 -0.9967357 -0.99346477 0.24036604 0.27524734 0.8608891
-0.026343348 -0.06173368 0.016232645 -0.17116116 -0.091048665 0.00019602496 -0.11867048 0.05175658
0.01141831 0.877557 0.11364305 0.37281466 1.0439563 0.087100774 0.6138437 0.84116334
0.12340651 0.37525877 -0.11690903 0.32766417 0.21849874 0.10233755 0.55132663 0.11828625
-0.0017025098 0.36860147 0.002737993 -0.13243482 0.059773516 -0.4834928 0.0962823 0.06059087
-0.40201628 -0.21269497 -0.115866326 -0.6675918 0.35171357 0.045336377 -0.4415534 0.41518682
0.12368827 -0.36046144 0.3219143 -0.20862652 -0.3287159 -0.25924146 0.1933489 -0.5713111
-0.411169 -0.06268726 -0.5736249 -0.50957435 -0.21284965 -0.6323017 -0.1560413 0.11899773
0.031168267 -0.0762097 0.20130068 -0.06410044 -0.0011858413 0.07816366 0.04185121 0.31407747
-0.030509692 0.5237882 -0.44381812 -0.14085409 0.04978565 -0.09710231 -0.35873413 0.04072672
-0.0971246 0.14210176 0.36351115 -0.23946881 -0.14153682 0.11701187 -0.38035655 -0.17283432
0.09197524 -0.26895398 -0.12508354 0.08749394 0.33969405 0.49566454 0.26696163 0.3115211
0.48305023 0.1830214 0.35376984 0.2391047 0.061480377 0.24140443 0.023705283 0.29553935
0.20856495 -0.005086358 0.06460967 -0.60902727 -0.09312817 -0.3548454 -0.6072169 0.08896405
-0.06496335 0.93473136 0.6159418 0.3302686 -0.5785772 0.12730221 0.66701615 -0.38168463
0.525971 0.35835776 0.018454028 0.32367134 0.07904355 -0.18438609 -0.30230182 0.43027264
-0.58124256 0.62210125 -0.061261017 0.46008265 0.072099134 -0.1491966 -0.072240524 -0.524399
-0.5431633 -0.5034422 -0.0026493177 -0.34210965 -0.011697318 -0.10542048 0.0006067058 -0.034967314
0.3127101 -9.563551e-05 -0.036912695 0.33881718 0.19154815 -0.59037757 -0.5795873 -0.31982574
0.074594215 -0.022311535 0.08780874 -0.1584505 0.11063714 0.30222228 0.021074932 0.2178283
0.022705218 0.2945491 0.70538664 0.15621327 -0.07932517 -0.36294332 -0.5141579 -0.7569738
-1.115942 -0.40784785 -0.04413181 -0.1484189 0.20218667 0.1778213 0.19290818 0.2309406
0.096282765 -0.29756302 -0.24401726 0.45359954 1.3105707 0.7387562 0.5634234 0.013155188
-0.5884391 -0.87379444 -1.5757209 -1.024477 0.02555898 0.85151625 1.1684481 0.6753991

conv2.bias f4 [4]
00000000: e87d 603e 1842 453a f0eb 87be 4d76 0f3e
0.2192303 0.00075248023 -0.26547194 0.14009972

fc1.weight f4 [29, 576]
00000000: 2b79 ef3d 50d8 2abd 5390 87be 211b 933d
00000010: ad4a 9e3d ec0b aabc 6387 1e3e 812d 153d
00000020: 68b4 15be fc00 593e 400d c73d beab a23e
00000030: 48ba dfbd 4f69 d9bd 5b14 743d 9959 b9bc
00000040: 563c e9bd e1fd 94bc 4900 a1be 3f51 fcbd
00000050: 3e79 b03d 0f04 973e b99e f53d 2321 893e
00000060: 910f 9ebd 5eda 03be 1fff 9e3e aab1 de3d
00000070: c70d 583d 058c bf3e 099a 603e 2d46 973d
00000080: ca37 773d d239 9bbd aa22 6bbe 4f88 433e
00000090: 83a5 173d a9e0 63bd 4e15 55bd f1d4 d8bd
000000a0: b733 85bd 6ae6 31be e7c9 cebd e52c f7bd
000000b0: 7e47 b93d 5024 873d 11b8 fc3d d8f1 4c3d
000000c0: 5029 c4bd c9a2 9b3d be43 143c 97e4 193e
000000d0: 14a0 26ba 3e1b 73bc c93c 063d a6ca 5ebc
000000e0: f0c5 c1bd 76af 873c 64f0 5bbd babe 3bbd
000000f0: 7095 18be 2760 393c 96ec f83d 43fb 0d3d
00000100: 322b 223e 1159 b93c 3f52 85bc b7c3 40bd
00000110: 4f5f 333e bfcd cfbd 95df a9bd bf86 d7bd
00000120: 923e 1fbe 3791 4bbd 1ed3 1cbd f099 32be
00000130: 4a69 fcbd 93a5 af3d a3a7 393e 3ebc 213e
00000140: c9a6 133e f317 ecbd 850c e2bd 65bc cb3c
00000150: e8f1 3cbe 1ddc 9dbe e4d2 94be cfc6 7c3b
00000160: 59dd 72bd a706 233c 2f10 893d 5388 00bd
00000170: 5277 93bd 97aa 05be 9a5d 1cbe c11b 053e
00000180: 0b58 65be f705 9bbd c090 85bd ba72 1abd
00000190: 8a38 343d 8537 aabd 7649 18be 18b2 4b3c
000001a0: a7a5 f83a e0d2 db3d 2b42 fa3d deb9 763d
000001b0: 5bc7 9bbe edab 9b3c 8dac 0c3e 6460 ef3d
000001c0: 237a c6bd c33d 03be a75b 76bd 9761 37bd
000001d0: d7b1 2cbc a8dd 97bc 71a7 6d3d c97b ca3e
000001e0: 7618 2f3d ba9d 48be 1588 12be 1d5b 2fbd
000001f0: 3ebd 67be bf92 b1bd d722 a23b bd50 f2bc
00000200: e169 70bd 1333 353b 31bc f9bc 33c6 d0bd
00000210: 4631 eabd 6c86 0abe 671f c7be 457a 97be
00000220: cfca 15be 690c 9abe 9393 253d 31b7 573e
00000230: f9bf 43bd b0af 4cbd 74ba 28be a0fd 98be
00000240: 8af3 1fbc 5bb2 cbba 5366 b93c fab0 423c
00000250: d0d2 acbc 6917 59bc 9d84 56bd 9bff c83c
00000260: 522d b9bc 28ab e13b bb12 5abc 55dd f9bb
00000270: 4ed0 47bc 7948 553d 0133 4dbd ca25 bdbd
00000280: eeaf 933c 7070 07bd b6f8 03be ee2a bcbc
00000290: e2b1 a8bd e10c fb3c d7c3 7bbd 653c ba3d
000002a0: 4ae9 c53c 35c5 403d c67b b7bc 1f29 03bd
000002b0: 8eba 74bd a5bc bdbc ae16 02bd 1cdc 02be
000002c0: 70b6 62be c994 903c 7993 15bc 09f5 873d
000002d0: cf06 5c3d 2ff5 243d ca55 a33d beca 593d
000002e0: 2358 c8bd c4ad 28bd 9f3b a4bd 022f 9d3c
000002f0: c117 a2bc f86e 9fbd 9d4f 0bbe 128f a8bd
00000300: ac04 c03d ac28 143e b263 d73d b5ea d03d
00000310: 658d 823a c7f1 0e3c 4d4b 92bd 00ad ddbd
00000320: a86d fbbd 5577 dbbd 1f9d 9a3c 6333 ea3d
00000330: 3e8e 593d 4c60 633d 1f67 9b3d 4ef2 2a3c
00000340: 39ec a7bd df1f c83d 9490 42bc 9632 1cbd
00000350: 20dd a3bd 63c7 6ebd 94aa b53d 7935 ff3b
00000360: ac51 cfbb 0ac9 05bd 4ee0 0dbe c0a2 323b
00000370: 5eef 34be 7758 39be 71be e7bd c3a3 b4bd
00000380: 5100 1ebd 7f1d 9a3d e876 a83d 2e05 f9bb
00000390: 2a17 d23d beba 803d 3907 083d 4da3 0cbd
000003a0: 54f6 323c a317 803c 320e babd ea1e e2bc
000003b0: 744b bb3d 1d05 6b3c 1e37 4f3c d4ca 9bbd
000003c0: e230 d83c 0bab 2dbd ba3d 91bc 2c0d fc3c
000003d0: 58ab 553d d00f c63d b335 053e 7a0d 6e3d
000003e0: c0d2 953d 8ebd 503c a6b1 1cbd fb91 c8bd
000003f0: d6b7 863d a7dd 243d 9c62 c839 98f3 033e
0.11693033 -0.041710198 -0.26477298 0.07182909 0.07729087 -0.020757638 0.15481333 0.03642035
-0.14619601 0.21191782 0.09719324 0.31771654 -0.10924202 -0.10615789 0.059589725 -0.022625731
-0.11388461 -0.018187465 -0.3144553 -0.12320184 0.08616875 0.29495284 0.119931646 0.26783094
-0.07717813 -0.12876269 0.31054017 0.108737305 0.052747514 0.37411514 0.2193376 0.07386432
0.06035594 -0.07579388 -0.22962442 0.19094966 0.03702308 -0.055634174 -0.05202227 -0.1058749
-0.065040044 -0.17373052 -0.100971036 -0.1206911 0.09046839 0.06598723 0.123397954 0.050035328
-0.09578192 0.07599408 0.009049354 0.15028606 -0.0006356251 -0.014838038 0.032772813 -0.01359812
-0.09461582 0.016563158 -0.05369605 -0.045836188 -0.14900756 0.011314428 0.121545 0.03466345
0.1583679 0.022625478 -0.01627457 -0.04706165 0.17516826 -0.10146665 -0.08294598 -0.10523748
-0.15551212 -0.049699035 -0.038287275 -0.17441535 -0.1232477 0.08576503 0.18130355 0.15794465
0.14419092 -0.115280055 -0.11037544 0.024870107 -0.18451655 -0.30831996 -0.29067147 0.0038570648
-0.059293125 0.0099503165 0.0669254 -0.03138001 -0.07200493 -0.13053356 -0.15270081 0.12998869
-0.22396867 -0.07569497 -0.065217495 -0.037707068 0.043999232 -0.08311371 -0.14871773 0.012432598
0.0018970267 0.107335806 0.12219652 0.06023585 -0.30425534 0.019002879 0.13737698 0.11688307
-0.096912645 -0.12816529 -0.060146 -0.044770803 -0.010540447 -0.018538311 0.058021013 0.39547566
0.042747937 -0.19591418 -0.14309724 -0.0428115 -0.22630784 -0.08670568 0.004948001 -0.029579515
-0.058694724 0.002764885 -0.030485244 -0.101940535 -0.114351794 -0.1352784 -0.38891146 -0.29585472
-0.14628147 -0.30087593 0.04042394 0.21065976 -0.0477905 -0.049972236 -0.16477376 -0.29881
-0.009762654 -0.0015540825 0.0226318 0.011883015 -0.021096617 -0.01325021 -0.052372564 0.024535945
-0.022604618 0.0068868585 -0.01331013 -0.007625262 -0.01219566 0.05207107 -0.05009747 -0.09235723
0.018028226 -0.033066213 -0.12887844 -0.02296969 -0.082370535 0.03064579 -0.061466064 0.090935506
0.024159092 0.04706307 -0.022397887 -0.032021638 -0.059748225 -0.023161242 -0.03175991 -0.12779278
-0.22139907 0.017649071 -0.0091293985 0.066385336 0.05371743 0.040272888 0.07975347 0.053171866
-0.09782436 -0.04118134 -0.08019184 0.019187454 -0.019786717 -0.077848375 -0.13604589 -0.082304135
0.09375891 0.1446864 0.10517062 0.10201017 0.0009960352 0.008724636 -0.07143269 -0.10824013
-0.12276775 -0.1071612 0.01887375 0.114355825 0.05311417 0.055511758 0.07588028 0.0104337465
-0.08199353 0.09771704 -0.01187529 -0.03813418 -0.080011606 -0.05829562 0.08870426 0.007788357
-0.0063268747 -0.03266243 -0.13855097 0.002725765 -0.17669436 -0.18100153 -0.11315621 -0.088202976
-0.03857452 0.07525157 0.082258046 -0.0075994944 0.102583244 0.06285618 0.033210013 -0.034335423
0.010922987 0.01563627 -0.09084739 -0.027602632 0.09145251 0.014344481 0.012647418 -0.07607046
0.026390497 -0.042399447 -0.017729629 0.030768 0.05216536 0.09670985 0.13008766 0.05811832
0.07315588 0.012740506 -0.038255356 -0.097934686 0.06578033 0.040250447 0.00038220442 0.12885892

fc1.bias f4 [29]
00000000: 754c 833d fd72 653c 9cef 473c 5278 943c
00000010: 9972 b3bc ad9b c2bc 2c63 e03c bb58 b13c
00000020: e0f4 873c 42a9 883d a3af 023d dc4d 31bd
00000030: 9cc5 eb3c 00fc 8cbd a905 4fbb 6a1d 30bc
00000040: 548b 023d 25d9 013d 7d46 a13d a569 2bbd
00000050: 01bb a63c 7f91 2fbd c062 40bd da75 8838
00000060: e4cc b83c 58e0 e83d 2c53 5f3d c00f 1bbc
00000070: a3b2 f1bd
0.064110674 0.014004466 0.012203123 0.01812378 -0.02190523 -0.023755873 0.027391039 0.021648755
0.016596258 0.06672908 0.03190578 -0.043287143 0.02878075 -0.06884003 -0.0031589067 -0.0107492
0.031871155 0.031701226 0.07874773 -0.041848797 0.020352842 -0.042863365 -0.046969175 6.506937e-05
0.022558637 0.11370915 0.05452268 -0.009464204 -0.118016504

fc2.weight f4 [29, 29]
00000000: 3ca2 5b3e 272a 2e3e eab1 c03e 00b3 263e
00000010: 6818 4f3c cade 63be 80c5 793e 7436 46bf
00000020: a301 653d cb12 9c3e be14 0cbf fee4 633e
00000030: 6db5 a0be 6bc8 643b 3b24 ab3d 8399 1e3f
00000040: db14 9a3e 4941 103e ad81 993c 35bf 083f
00000050: bfea 55bb 916e 07be 9387 8bbe 7a9c 113f
00000060: 5b08 7fbf a3f5 9abe 28a2 083f 98f6 17bf
00000070: 1ea6 34be 00f4 9dbe fe27 4abe 5088 03bf
00000080: 9765 2d3d 1a3b febe c4dc b5be 531d f33e
00000090: c623 0fbe 20a8 20be e327 61be 8e96 51bf
000000a0: e7eb 25bf 1a5f 7b3e c207 313f f383 2e3d
000000b0: 950a de3e 1e2a 0dbe 9366 123f f9f3 633e
000000c0: 29da c43e 1b58 ab3e cb9a 6abe 2e7d d83d
000000d0: 15ab c03e ae61 3dbf b75c e3be 67c9 243f
000000e0: 7d85 7f3e 2678 bfbd 6549 8b3e d971 423b
000000f0: c7fa 043f 4e7f 973e 8a3a 5e3d 8bea 87be
00000100: 708c bebe 306b 8b3c c740 54be 39c4 223e
00000110: 48ca ebbe 5d5f 903e 31ff 5abf 3143 07bf
00000120: 5c8a a63d 0ec9 983e d355 b3be 537f ad3e
00000130: 1e7e ba3d 6b1f 33bf 533c 4a3e f795 42bb
00000140: 1e02 b43e 24ad ae3e b9db b2be 5b03 e1be
00000150: a6cb 69be 1316 0ebf c6dd 463f c5cd a0bc
00000160: 6b8a 3abe 1375 42be df91 073f f4f9 3fbd
00000170: 3e08 a8be 263f 563e f645 273e 7988 acbe
00000180: 72d8 313e 8e34 91bf adb9 533e 0873 65bd
00000190: 01b2 9e3e 7724 42bd 93be 8a3e 6fd4 44bf
000001a0: c41f d53e 98c7 dbbd 9344 26bc a8e2 a43e
000001b0: 269e a9bd b72c 363e caae a93e bcf5 f2be
000001c0: 821f c7be f3f5 ad3e e25e 19be 15ce e93e
000001d0: 5290 11be 5e28 0b3e e0b6 5cbd 7f09 0e3f
000001e0: a728 4c3d 7329 b5be d0ba 483d 4789 243e
000001f0: ab09 2bbf 11cf 2abd 8f23 2cbf 3101 cb3d
00000200: 1c5b 673e 940c ba3e ccdd a1be d40d 713e
00000210: ea10 a43e 3157 a63e defb 783e 8bc5 a53e
00000220: 9d0b e83d 2b6c a53e dfbc 243c 4adc bc3e
00000230: 6fe2 083d 937b 71be 2c97 123f 6cb4 01be
00000240: 28a0 4b3c acf3 8fbe 399c c93e d250 543d
00000250: e27f 8f3e c72e e53e 5799 9ebe f2fa 26bd
00000260: ba6c cfbd c96f 24bf 5cb7 a6bd 17e6 acbe
00000270: 1f52 033f 1dc1 893e 41cf 40bc 2758 033e
00000280: 725e 4c3e 2740 a0bd 49b2 a2bd 3427 c0be
00000290: 021f 563e 6115 60be 9014 78be 3643 1e3e
000002a0: 33d3 e53d 7b31 f9be 3a5e babe d32f c63e
000002b0: e2c9 f73e 8073 b73e 2fd2 d33e ee80 8fbe
000002c0: a2b6 bbbc ec4b 933e 99d1 67be 0991 31bf
000002d0: 19e3 07be f55a 37be 9bed 78be 79bf 9c3d
000002e0: c042 3a3e 0141 0cbe 660d 0d3f 2b6b 36bd
000002f0: 15b3 d9bd cdc0 0e3e 39b3 123f e4dd 1bbf
00000300: 74d1 09bf 72fd c73e de5d 36be a80a ccbd
00000310: fdd1 193e fc88 6bbf 1619 00bf d4b1 8bbe
00000320: ea4e 223e e0ef 0f3f 6cee 033f f21e ed3e
00000330: 96db 37bf c9ea 91bf 2691 b6be 0fc2 0bbd
00000340: b243 1cbe 7e36 99bd 26b5 dc3d f843 533c
00000350: 605a 2cbe c238 d13e 8b8d 0dbf 9a09 db3e
00000360: 1eb7 373e 4f19 813e 8e03 19bf f1a9 94bd
00000370: d7b8 e9be df4e f33d 88d8 eb3e 9fd7 2ebf
00000380: ad2f 803e 349e a33e cb42 60bf d8e6 0cbf
00000390: ed15 36be 6519 0f3f dfc6 233f 1ecc ce3e
000003a0: f354 f5be a3de a8be 0d45 33bd 9a71 423e
000003b0: c595 9fbe 1626 3dbf bae3 0b3f ce0d 8abe
000003c0: 9d09 7e3e 0739 a1be 96cf cfbe b4d0 99bd
000003d0: 3468 0b3f af9b bd3e 2980 8dbe 3f33 dfbe
000003e0: f8f3 d03d c2fa a4be ab18 e5be 65dd ea3e
000003f0: 757d 2a3e 1268 e63d 7e90 033d 05a6 7fbe
0.21448606 0.17008267 0.37635738 0.1627922 0.012640096 -0.22252956 0.24391747 -0.7742684
0.055909764 0.30483088 -0.5471915 0.22255322 -0.31388417 0.0034909497 0.0835652 0.6195299
0.30094036 0.14087404 0.018738592 0.5341676 -0.003264114 -0.13225771 -0.27251872 0.5687939
-0.99622124 -0.3026553 0.5337243 -0.5936065 -0.17641494 -0.3085022 -0.19741818 -0.5137987
0.04233321 -0.49654466 -0.35519993 0.4748331 -0.1397849 -0.15689135 -0.21987872 -0.81870353
-0.64813083 0.24547997 0.6915246 0.042606305 0.43367448 -0.13785598 0.57187766 0.22261037
0.38447693 0.33465657 -0.22910611 0.10570751 0.37630525 -0.7397717 -0.44406673 0.64369816
0.24953265 -0.09349088 0.27204433 0.002966991 0.51945156 0.29589313 0.054255046 -0.2654613
-0.3721652 0.017018884 -0.20727836 0.15895166 -0.46052766 0.28197756 -0.8554564 -0.528369
0.08131859 0.29840893 -0.35026416 0.33886203 0.09106086 -0.69969815 0.19749574 -0.0029691437
0.35157865 0.3411647 -0.3493326 -0.43947873 -0.22831592 -0.5550243 0.7768215 -0.019629369
-0.18216865 -0.18989973 0.52956957 -0.046869233 -0.32818788 0.20922527 0.16335282 -0.3369787
0.17367724 -1.1344163 0.20676298 -0.056017905 0.3099518 -0.047398057 0.27098522 -0.7688665
0.41625798 -0.10731429 -0.010148185 0.32204175 -0.082821175 0.17790495 0.33141166 -0.47453105
-0.38891226 0.33976707 -0.14977601 0.4566504 -0.1421521 0.13589618 -0.05388534 0.5548324
0.049843457 -0.35383186 0.049006283 0.16067992 -0.6681163 -0.04170138 -0.6724176 0.099123366
0.22593349 0.3633772 -0.3161453 0.23540431 0.32044154 0.32488397 0.2431483 0.32377276
0.1133034 0.32309088 0.010054796 0.36886817 0.03341907 -0.23582296 0.5726192 -0.12666482
0.012428321 -0.28115594 0.39377 0.05183489 0.28027254 0.4476225 -0.30976364 -0.040766664
-0.1012816 -0.6423307 -0.08140442 -0.33769295 0.5129718 0.26905146 -0.011768163 0.12826596
0.19957903 -0.07824736 -0.079441614 -0.3752991 0.20910266 -0.21883155 -0.24226594 0.15455326
0.11221924 -0.48670563 -0.36400014 0.38708362 0.48396212 0.35830307 0.41371295 -0.28028053
-0.022914235 0.2876886 -0.22638549 -0.6936193 -0.13270225 -0.17905791 -0.2430939 0.07653708
0.18189526 -0.13696672 0.5509857 -0.044535797 -0.1062986 0.13940735 0.5730472 -0.60885453
-0.53835225 0.3906055 -0.17809245 -0.0996297 0.1502151 -0.92005897 -0.5003828 -0.2728411
0.15850416 0.56225395 0.5153568 0.46312672 -0.71819437 -1.1399776 -0.35657614 -0.034120616
-0.15260199 -0.07481097 0.10776739 0.012894623 -0.1683135 0.40863615 -0.552941 0.42780763
0.17940947 0.2521462 -0.5977105 -0.07258976 -0.45648834 0.11880278 0.46063638 -0.6829776
0.25036374 0.31956637 -0.8760192 -0.5503974 -0.17781802 0.55898124 0.6397533 0.40390104
-0.47916374 -0.32982358 -0.043767024 0.18988648 -0.31168953 -0.7388624 0.5464436 -0.26963657
0.24808355 -0.3148882 -0.40588063 -0.0751051 0.54455876 0.3703284 -0.2763684 -0.43593785
0.10202783 -0.32222563 -0.44745383 0.45872036 0.1664942 0.112503186 0.03212022 -0.24965675

fc2.bias f4 [29]
00000000: 3a0e 37bc 25b9 7abe 0af1 c7bc a054 583d
00000010: 3e77 ff3d f376 f6bd 4eb2 28be c98a 7ebd
00000020: efc9 a33e 6488 023e 33ae 06be c439 1d3d
00000030: 36cb 9bbd 15b3 a3be e2cb 8bbe 7f37 3fbe
00000040: f889 cabd d38a adbd 4ea7 613d 9f1d 3f3e
00000050: b01e 983d f2ce 81bd 95cd 95bb fb32 503e
00000060: c884 f43d 08b6 0a3e 1f0f bc3d d59a 293d
00000070: fe89 aa3e
-0.0111728255 -0.2448469 -0.024406929 0.05281508 0.124739155 -0.120344065 -0.16474268 -0.062144075
0.3199 0.12747341 -0.13152389 0.038385168 -0.07607119 -0.31972566 -0.27303988 -0.18673514
-0.09889597 -0.08473744 0.055091195 0.18663643 0.07427728 -0.063383 -0.0045716264 0.20331948
0.119393885 0.13546002 0.091825716 0.041407425 0.33308405
